data/RR.pth (torch, 78859 bytes, 9 tensors)

inputlayer.weight f4 [64, 5]
00000000: 8efe 013e 9a3d 8e3e 0206 b1be 0ee7 94be
00000010: be9d 00bf e313 d73d 3e58 2abe 252e 9bbe
00000020: 1c5a 10bf 63cc bebe c72b 4cbf c06a 453e
00000030: d08c 19bf 8a86 cdbd 58ac 1f3f 8b8f 103d
00000040: 6a49 31be 7ee3 e9bd b17a e0bb d5f1 903e
00000050: 5566 423e 386f 9abd ba3d 9c3e 75b1 62be
00000060: 0467 23bd 3872 15be 6046 893e 4d5c 2ebc
00000070: a676 c1be 8d6c eabe b46e fcbc 1073 543e
00000080: 2b2e 4c3a 2b90 d2be 48cf 503e 1c26 2e3f
00000090: 5b24 d5be 6bc6 a4be 7b24 713e f8dd dd3d
000000a0: 98a5 5c3d b80c 8f3d ae5e 613f 07f6 ca3b
000000b0: 25cb 31bc cf5b 923d 906e 6ebd 5c6d f2be
000000c0: 18ea 78bd 173a f2bb a336 1f3d b606 2abe
000000d0: f80a f5be 4aed 4fbe 0af0 273f 81df a9be
000000e0: 0e7f bb3e 7dd2 58bc 635f cd3c 1f33 48bd
000000f0: ef0b 9dbe 9871 20be a516 86be a7cf 9ebe
00000100: 4160 a23d 49e5 05bf 3c09 413e 4758 ad3e
00000110: 54e7 97bc 31df 7b3b 7133 af3d 4a76 5ebe
00000120: b22e 85be cbc8 43bf 127c 04bf 5c27 2ebe
00000130: 14b9 7c3e 422c 0b3f 03ca e2bd 943b 923e
00000140: 62fe 67be 5866 873e c5c6 953e bbff de3e
00000150: ed78 773d eca9 d43d 8c6c f8bd a402 f63c
00000160: 49f4 3b3c 7da9 d93d f675 3639 00dd 123e
00000170: 1f47 783c bda4 87bc 4250 aa3a ea50 cb3d
00000180: abf5 c8be 7e4a 3abf 2c52 8a3c 6deb aebe
00000190: c017 163f d056 2d3d 6ff4 923e 70ea 65be
000001a0: 5888 b33e 4772 83be ee8c 97be a2ca 93be
000001b0: 8706 723e 07b9 efbe def0 d1be b0f1 0abd
000001c0: 9c9a 85be 2504 983d 4ee3 0b3f b994 2eba
000001d0: 20f0 4a3e ba84 76be f772 0a3e d099 d7bd
000001e0: ea3a 0f3e 7456 773e 1498 f43d 80f9 c7bd
000001f0: 37e7 3d3d 46e8 c73d e678 30be 9c06 80bd
00000200: 58d4 63be c97d 20be e5de 8c3e f09a 553e
00000210: 079b dc3e a25c c03d 29e4 9ebe cd14 043e
00000220: 309f 913c c97b 06bf b749 aabc 2776 8fbf
00000230: 1bdf 0abe 7a93 9dbe 1746 633f a9a0 363d
00000240: a53f cebe c159 2dbe 68c5 b23d a721 d33e
00000250: cf1c 973d c29f 42bd fa0e 9d3d defc 3bbe
00000260: 28ab 0fbf cab0 0a3d 68d5 0ebf 4cc3 38bf
00000270: e419 7a3e e1f8 35be 497b 073c 1383 243e
00000280: 1795 8cbe f0f5 f7bd d105 593e 2328 dd3c
00000290: 6cdb 7dbc a438 79be d055 dd3d c73f 353d
000002a0: b0e2 d3be 1ded 62bd 80ad b1be d84b 663e
000002b0: 3e62 10be 257b 69be 9e56 53be d723 093d
000002c0: 679b c4be b26a c8bb 3f25 8abc f8a5 913c
000002d0: 4cb1 debd be28 05be 1783 84bd 2bb7 60bd
000002e0: 6fe6 4e3e 425d f8bc 7808 6cbe 8453 a23d
000002f0: d833 0cbc e8af 88bd f1b9 533e fc5a d6bd
00000300: a15a 06c0 fb1c 0bbd 0bcc a8bc 9fb5 313f
00000310: 8464 5f3e ce6f 603e b2cf f03d 4396 babe
00000320: de3b 03bc b2bd b13e ab62 523e 9c1f ccbb
00000330: 9300 f7bb 671a b03e 4243 b5be 1d3f 123e
00000340: 8115 5bbe 1880 b33e 5f76 103e f2ec df3e
00000350: a24a 94bf f18a 25be 9150 b5be 6f4a 0bbe
00000360: 5842 ac3e 065c f93e c946 9c3d 68ee ca3d
00000370: 3d78 ed3d a898 dc3d 7970 64be f1d6 28bf
00000380: 0a81 b2be bde8 7d3d 8a89 e33e 5f8a 543c
00000390: ac21 203d 0cfe d2be 07fb adbc 789e af3e
000003a0: aedb 863e c7f5 363c bda7 933a 6ed0 1cbe
000003b0: acb6 6cbe c3ab 97be fdaf c7be 14c2 1f3e
000003c0: b093 0bbd c0d5 8d3e 235f b4bd f4c4 11bd
000003d0: 49d1 893e 38b1 a73e ea31 d63e e604 ab3e
000003e0: 7e15 c63e e7fd b53e 86dd 0e3e b0a6 c1bd
000003f0: cf36 ab3f 4141 343d d81c ecbc 81e9 6ebc
0.12694761 0.27781373 -0.34574896 -0.2908253 -0.50240695 0.1050184 -0.16635224 -0.30308643
-0.56387496 -0.3726531 -0.797543 0.19279003 -0.5998049 -0.10035427 0.6237235 0.035293143
-0.17313161 -0.11420344 -0.0068505635 0.28309503 0.18984349 -0.075407445 0.30515844 -0.22138007
-0.039893165 -0.14594352 0.26811504 -0.010642123 -0.37785834 -0.45785943 -0.030814506 0.20747018
0.0007788862 -0.41125616 0.20391572 0.680269 -0.416293 -0.3218263 0.23549072 0.10833353
0.05386886 0.06984848 0.88035095 0.0061938795 -0.010851656 0.07146417 -0.05821091 -0.4734906
-0.060770124 -0.0073921788 0.038870465 -0.16604123 -0.4785993 -0.20305362 0.65600646 -0.33178332
0.36620373 -0.013233778 0.025069898 -0.048876878 -0.30673167 -0.15668333 -0.2618915 -0.310178
0.07928515 -0.52302986 0.18851179 0.33856413 -0.018542923 0.0038432593 0.085547335 -0.21724811
-0.26012188 -0.7647826 -0.51751816 -0.17007202 0.24679977 0.5436441 -0.11073687 0.2856108
-0.22655633 0.2644527 0.29253212 0.43554482 0.06041806 0.103839725 -0.12130079 0.030030556
0.011471816 0.106280304 0.00017400816 0.14342117 0.015153675 -0.016558046 0.0012993889 0.099275425
-0.3924993 -0.72769916 0.016884886 -0.3416399 0.5862999 0.04231912 0.28702113 -0.22452712
0.3506496 -0.25673124 -0.29599708 -0.28865534 0.23635302 -0.46820852 -0.4100408 -0.033921897
-0.2609452 0.074226655 0.54643714 -0.00066597346 0.19818163 -0.24074069 0.13520418 -0.10527384
0.13987318 0.24154073 0.11943069 -0.09764385 0.04636308 0.097610995 -0.17233619 -0.06251261
-0.22248971 -0.15672983 0.27513805 0.20859885 0.43087026 0.09392668 -0.31033447 0.1289856
0.017776102 -0.5253263 -0.020787103 -1.1207932 -0.1356167 -0.30776578 0.88778824 0.04458681
-0.40282932 -0.1692877 0.087290585 0.41236612 0.07378542 -0.04751564 0.07668872 -0.1835818
-0.5612054 0.033860005 -0.5579438 -0.72173 0.24423939 -0.17770721 0.00826914 0.16065626
-0.27457497 -0.12107456 0.21193625 0.026996678 -0.015494209 -0.24338013 0.10807383 0.044250276
-0.41383886 -0.05540191 -0.34702682 0.2248987 -0.14099976 -0.22800882 -0.2063851 0.033481445
-0.38399813 -0.0061162347 -0.016863463 0.017779335 -0.108736604 -0.13003823 -0.06470316 -0.054862183
0.20205091 -0.030317906 -0.23050106 0.079260856 -0.008557282 -0.066741765 0.206764 -0.10466573
-2.0992815 -0.033963185 -0.020605108 0.69417757 0.21815687 0.2191765 0.11758365 -0.36442766
-0.008009879 0.3471504 0.20545451 -0.006229354 -0.0075379102 0.34395143 -0.35402876 0.14281888
-0.21394922 0.35058665 0.14107655 0.43735462 -1.1585276 -0.16166283 -0.3541303 -0.13602613
0.33644366 0.4870302 0.07630689 0.09908754 0.11595199 0.10771304 -0.2230853 -0.65952975
-0.34864074 0.061989535 0.4444087 0.012972443 0.039094612 -0.41209447 -0.021237863 0.3430059
0.26339477 0.011166996 0.00112652 -0.15313885 -0.23116559 -0.2962323 -0.39001456 0.15601379
-0.034076393 0.2770214 -0.088072084 -0.03558822 0.26917484 0.32752395 0.41834956 0.33402175
0.38688272 0.35545275 0.13951692 -0.09455621 1.3376101 0.044007543 -0.028822348 -0.014582039

inputlayer.bias f4 [64]
00000000: 470f 8d3e 7e63 053f 2ca8 8c3f f35e 663f
00000010: 747d e0be 527e a6bc d2d0 4f3f a8d9 843e
00000020: f91e c3bf f707 953f 77e0 8f3f ee9b 7ebe
00000030: 2843 c1be 58d0 4a3e 45b0 fdbd 3b06 f2be
00000040: b6bb 95be 0053 82bf b234 c53f b0a1 cf3f
00000050: 0add 4abe f31b d4be 1172 8cbe a992 f6bf
00000060: 2fef 1040 7585 af3e 6da7 1bbf a51e 153e
00000070: 4eec f53e 5fab d4bf 393b 4e3d 42b3 83be
00000080: dedd 2d3f ab3b 0ebd e8b3 783b 718b 093f
00000090: cd43 c9be 37c5 c13f 8ec1 313f 398f e3bf
000000a0: 8363 303f e279 b53f 74b3 2e3f d13e 88bf
000000b0: dc73 923e 6e16 a0bf 9f5f 1ac0 7615 be3e
000000c0: 246b 1d3f d7b6 cb3d 50ee 02c0 7ab3 1240
000000d0: 7d8b 283e 2c90 1040 4b2c 033f 2272 9c3f
000000e0: fa4f 953d 6955 d73b c0f7 a4bf a18d 6f3e
000000f0: e8b9 183e 3c1a 133e cd32 633e e354 c83e
0.27550718 0.5210494 1.0988822 0.8998863 -0.43845713 -0.020323906 0.8117801 0.2594731
-1.5243827 1.1643056 1.1240376 -0.2486417 -0.3774655 0.1980604 -0.12387136 -0.47270378
-0.29244775 -1.018158 1.5406706 1.6221218 -0.19810882 -0.41427574 -0.27430776 -1.9263507
2.2645986 0.34281507 -0.60802346 0.14562471 0.4803185 -1.6614798 0.050349448 -0.257227
0.6791667 -0.034724873 0.003794903 0.53728396 -0.3930954 1.513831 0.69435966 -1.7778083
0.6890184 1.4177821 0.68242574 -1.064417 0.2860402 -1.2506845 -2.4120862 0.37125748
0.6149161 0.09946983 -2.0457954 2.2922044 0.1645946 2.2587996 0.5123946 1.222233
0.07290645 0.006571461 -1.2888107 0.23393871 0.14914668 0.14365476 0.22187348 0.39127263

linear1.weight f4 [128, 64]
00000000: d4f4 90bd b811 8dbd 2749 fc3c b86c 17be
00000010: fff2 b7bd 80e7 b4bc 5aae cf3d 66bf f8bd
00000020: d094 21bd c69d 2b3e c65d b63d 9b0c dc3c
00000030: 31f7 0cbd fba8 9a3d 3b33 e63d fc10 0f3d
00000040: f35a fabc cf64 1f3e cb73 04bf 934d 743d
00000050: 0952 27be a013 f6bd e230 1bbe 3ed4 a5bd
00000060: 9935 a13b b41b 1bbb 77e3 c93d 8192 07bd
00000070: b038 2b3e 7aca fabd 802c bb3c 7061 243d
00000080: a4ad 933d 2c88 b5bd 7c1a 38bd e4ad f4bd
00000090: bf3b a7bc 53bf 04bd 5134 053e 12d0 72bd
000000a0: 3124 f73d bf99 d63d e5a3 aa3d 0b1f 033d
000000b0: 54be fb3d 8073 dd3d b646 d3be 2b03 cfbd
000000c0: acbd 6dbe 1ebe 793d 79c4 10be 44a6 0d3e
000000d0: 311e 2e3e 8c89 373e ea2c 16bd 5a5a 7cbe
000000e0: a0bd febd d4ec 023a 779c 603d 6208 50be
000000f0: cfe8 043e 4150 47bc 64e8 57be b680 293d
00000100: 30ce fd3c 02cf 1bbd 14ba a53d 4d54 a6bd
00000110: faa3 2fbe 6b25 8e3c 61d8 e53d 21b0 a5bd
00000120: 51e9 43bd 8543 ae3d 9cf4 963c 7400 073d
00000130: 3b66 debd 18c8 cabc 46e5 a73d c9ed d0bc
00000140: 749d e0bd 5487 293e e643 a7be 6db2 723c
00000150: 6472 48be 9da9 563d 88e8 d3bd db36 1fbe
00000160: 3a95 a33d b281 e4bc db86 ddbd 2a3e 8d3d
00000170: 611a da3d 411d aabd 5898 e03d e56a 63bd
00000180: 7118 cd3d c7ca f5bd 6af3 e5bd 1487 9abe
00000190: 4836 67be 695b 81bd cd50 96bc 9ce7 e9bb
000001a0: 1c76 743e 64c0 113e b4b1 c4bb b2e7 bdbd
000001b0: 3cd9 b0bd bfc0 913d a46e aebe f18e dfbd
000001c0: 89d3 b8bd dfa5 d73d 8f59 ebbd c8b8 683e
000001d0: 9065 023e 8d7c 323e 367a d13d fc0c ccbe
000001e0: 67d6 c83c aaaf 23bd 57c7 a1bc 36c6 aabd
000001f0: b117 a73d 9f1b e23d 4817 cabd 60aa a93d
00000200: c2c4 34bd 1ca2 013d e0c1 d4bd 506f 8d3d
00000210: 0dfb 1d3e 2288 7bbd e3e2 c53d 30e7 073e
00000220: 3942 01bd 5eaa ce3d b218 97bd fac1 24be
00000230: f2a4 6a3c f6b7 a83d d7e3 35bd a21e cf3d
00000240: f0d9 583d 1e7b dcba e26f c83e ca46 0cbe
00000250: d86c 2f3d 0883 a8bd 310f 04bd aee4 6d3d
00000260: d707 593d c91e f2bd 97c7 f53c 309f 9dbc
00000270: 75fa 14be e997 e03d 63b9 0bbe 2393 99bd
00000280: 6642 73be b721 b1bd 1e80 dfbc 71d7 833e
00000290: c3e4 493e 381e 63bd 7024 c73c f145 e13d
000002a0: dee1 80be a5e2 c6bd 4ad0 673d c5ff 9e3d
000002b0: 1d7d 92bd bb7f 513d df6d 903e 9a35 c6bd
000002c0: 1862 c23c 6b9a 62bc aafd c43d 1c22 17bd
000002d0: c78f 62be 8fab c4bb 2a82 ccbc 3a4f 9d3e
000002e0: 1124 c03c bc23 adbd ae3e 403b 666b 993d
000002f0: 9cc1 b4bd 31b9 f13d 8419 9a3d 617d 08be
00000300: a533 e03d fb81 76bd be7b 30bd 3123 10be
00000310: 7f95 b0bd 322b b9bd 10e9 a33d d8a9 f0bd
00000320: cdc2 40be fb1d c83c e072 d33c 9d52 abbd
00000330: b315 a43d d074 15be d630 9b3d 68d4 3c3e
00000340: 7504 1b3b eab4 babb ab77 443e 1ad2 af3d
00000350: d2d6 933d 1d09 f4bc 7873 893d 5988 f03c
00000360: 1b81 663d 884c 99bd 15dd d43d 1e32 2ebc
00000370: 984b 233a 873c 0b3d 4421 f9bd f89c 2f3e
00000380: 0508 9a3d 4804 f6bd f2a5 133d 6d32 093d
00000390: b8ac d83c 5c18 46be 3f67 dbbc 2150 a73d
000003a0: 0d89 1a3d 0353 9ebd 22c3 80bd e45e 65bc
000003b0: 53f9 dbbd 29ba 443e a0ca 1fbd 3cd0 9f3d
000003c0: 56fb 913c 34d8 dabd 4e2c c53d 54e0 0fbe
000003d0: a062 df3d 2050 16be c553 503d 1b41 e2bc
000003e0: 72d6 dd3d 0d98 97be 31b2 a4bc 818f b63d
000003f0: bf26 7abd c867 be3d 798e b3bc 3c2c c5bb
-0.07077947 -0.06888145 0.0307966 -0.14787567 -0.08981895 -0.022083044 0.10140677 -0.12145881
-0.03944856 0.16759405 0.089046046 0.02686148 -0.034415428 0.07551762 0.1124024 0.034928307
-0.030560946 0.15565799 -0.51739186 0.059644293 -0.16339888 -0.12015462 -0.15155366 -0.080971226
0.0049197194 -0.0023667635 0.098578386 -0.0330987 0.16720843 -0.122456506 0.022848368 0.040131986
0.07210854 -0.08863863 -0.044947132 -0.119472295 -0.020414231 -0.032409023 0.13008238 -0.059280463
0.1206745 0.104785435 0.08332042 0.032012027 0.122921616 0.108130455 -0.41264886 -0.10108026
-0.23216885 0.060972326 -0.14137448 0.13832957 0.17003705 0.17923564 -0.036663927 -0.24643841
-0.12438512 0.00049943966 0.054836717 -0.20315698 0.12979434 -0.01216513 -0.21084744 0.041382514
0.030982107 -0.038039215 0.08092132 -0.08121548 -0.17152396 0.017351827 0.112229116 -0.080902345
-0.04782993 0.08508972 0.018427186 0.032959417 -0.10859343 -0.024753615 0.08198027 -0.02550401
-0.10967532 0.1655553 -0.3266899 0.014813048 -0.19574887 0.05240785 -0.10347086 -0.1554827
0.07987447 -0.027893875 -0.10816737 0.068966225 0.106495626 -0.08306361 0.10966557 -0.055521864
0.100144275 -0.12001567 -0.11228068 -0.3018118 -0.225793 -0.06316263 -0.018349076 -0.0071382057
0.2387318 0.14233547 -0.006002629 -0.09272708 -0.08635184 0.071168415 -0.34068787 -0.10915936
-0.09024722 0.10529684 -0.11491691 0.22726738 0.12734056 0.17430325 0.10228388 -0.39853656
0.024516298 -0.03996245 -0.019748373 -0.08338587 0.08158816 0.110404246 -0.09867722 0.082844496
-0.044132955 0.03164874 -0.10388541 0.06905997 0.154278 -0.061409123 0.09662416 0.13271785
-0.031557295 0.10091089 -0.07377757 -0.16089621 0.014321553 0.08238213 -0.044406738 0.101132646
0.052942216 -0.001682136 0.3914786 -0.13698879 0.04282841 -0.08228117 -0.03224105 0.058079414
0.052985992 -0.11822278 0.030002398 -0.019240946 -0.14548667 0.109664746 -0.13644938 -0.07498767
-0.23755798 -0.08649009 -0.02728277 0.25750306 0.19716172 -0.05544874 0.024309367 0.109996684
-0.25172323 -0.09711198 0.056595124 0.07763628 -0.0715277 0.051147204 0.28208825 -0.096781924
0.023728415 -0.013830761 0.09618695 -0.036897764 -0.22125159 -0.0060018967 -0.02496441 0.30724508
0.023454698 -0.084540814 0.0029334235 0.07491188 -0.088259906 0.118029006 0.07524398 -0.13329078
0.109473504 -0.060182553 -0.04308676 -0.14075924 -0.08622264 -0.09041442 0.080034375 -0.11751145
-0.1882431 0.024428358 0.025811613 -0.083653666 0.08011951 -0.14595342 0.07577674 0.18440402
0.002365378 -0.005697836 0.19186275 0.085849956 0.07218708 -0.029789502 0.06711477 0.02936189
0.05627547 -0.074853 0.103937306 -0.010632066 0.0006229221 0.03399327 -0.12164548 0.17149723
0.07521061 -0.12012535 0.03604693 0.033495355 0.026449546 -0.1934523 -0.02678263 0.0816958
0.037728358 -0.07730677 -0.06287219 -0.0139996745 -0.10740914 0.1921164 -0.039011598 0.078033894
0.017820042 -0.10685769 0.09627591 -0.14050418 0.10907483 -0.14679003 0.05086114 -0.027618935
0.10831918 -0.29608193 -0.0201045 0.0891409 -0.061072107 0.092971385 -0.021918522 -0.006017236

linear1.bias f4 [128]
00000000: 7bad 88bd 9cf3 44bc 3474 a4bd fccb 26bd
00000010: dc76 47bd c960 b33c dc5a b0bd dd42 bbbd
00000020: 575e a43d a321 1e3b 05e2 173e e76f 293c
00000030: b438 b53d 6259 d6bd e121 f8bd e67a 91bd
00000040: 79a1 013e 4647 db3d 5a94 873b f0a4 8d3c
00000050: dcb6 9fbd 0562 58bd 5f7d 76bd 0809 0b3d
00000060: 80d0 4e3c aff6 693c ead6 d7bc 85a6 8e3d
00000070: e0ec fd3c 9125 ed3c e9e1 1cbd 3ebc bf3d
00000080: 90e5 f23b f66e 80bd fa97 f3bc ced0 f1bd
00000090: 4f4c 2e3b e512 a1bd fb64 a9bd 7abf 0d3d
000000a0: f6b5 06be 5c4b 92bc 7449 d43b 6fe2 293d
000000b0: ec19 2abc 992c d63c 5c54 763d 2614 233c
000000c0: 9e65 94bd 8c51 67bc d27b 403d 000b 0c3e
000000d0: 98e3 a83d 2252 03bd 57e5 cabd de37 55bb
000000e0: 0c7a f73c cee3 b03d 6745 243d d463 ff3c
000000f0: 1adc b73d 0a32 efbd f1b4 8bbd 6767 c43c
00000100: ddcd 7abd c500 d73d 18bb 943c 544d f53c
00000110: 09fc 743d 4cda ef3c 00ae 28bc 26c0 63bd
00000120: f6b3 d73d 4bb4 d83d cf41 fc3d 989d 22ba
00000130: 5a38 253d afc9 a5bc 1982 8abd a1bd 8e3d
00000140: ba1d e73c a388 053e ee5d 8a3c 4ca7 8d3d
00000150: 2ad0 f33d 7021 dd3d 8a1a 48bd 88d2 3b3d
00000160: 7196 2dbd 5094 ce3d a891 a53d 68b6 a5bd
00000170: c710 acbd f397 e2bd de66 3bbd 6647 93bd
00000180: fdcf 03bd f287 dc3d 436c 033d 2c40 e83d
00000190: 5f1a a6bd 0f50 0abd 0606 72bd faf9 a33d
000001a0: d80b aa3d 8d66 d8bd baad babd 699a f73d
000001b0: 5517 f8bd 73f9 bf3d 3cd6 d3bd 21de 7cbd
000001c0: 9143 1dbb 713f 8b3d b823 88bd 9a36 88bd
000001d0: 066a db3d 5be1 133e eff0 de3d 45a5 afbd
000001e0: 05b3 09be 406c dc3d 3217 ca3d c119 3b3d
000001f0: a412 4fbd 3662 c2bd bca2 bfbd 097d b03c
-0.06673714 -0.012020972 -0.080299765 -0.04072188 -0.048697338 0.021896737 -0.0861108 -0.091436125
0.080258064 0.0024128936 0.14832313 0.010341621 0.08848706 -0.10466267 -0.12115837 -0.07103519
0.12659253 0.10706954 0.004137558 0.017290562 -0.077985495 -0.052827854 -0.060178157 0.03394416
0.012622952 0.014280005 -0.026347596 0.06965355 0.03099674 0.028948577 -0.038301382 0.09362076
0.00741262 -0.06271164 -0.029735554 -0.118074045 0.0026595776 -0.07864932 -0.082712136 0.034606434
-0.1315535 -0.0178582 0.006478483 0.04147571 -0.010382157 0.026144313 0.060139045 0.009953534
-0.072459444 -0.014118563 0.046993084 0.13676071 0.08246535 -0.03206075 -0.09907024 -0.003253452
0.030209564 0.086372 0.04010525 0.031175531 0.08977528 -0.11679466 -0.06821621 0.023975087
-0.061231483 0.10498194 0.01815562 0.0299441 0.059810672 0.029278897 -0.010295391 -0.05560317
0.10532372 0.10581263 0.123172395 -0.0006203293 0.040336944 -0.020237772 -0.067630954 0.069697626
0.028212417 0.13040404 0.016890492 0.06916675 0.119049385 0.10797393 -0.048853435 0.045855075
-0.0423798 0.10086882 0.08084422 -0.08091432 -0.084016375 -0.11064138 -0.0457524 -0.071913525
-0.032180775 0.10768117 0.03208567 0.11340365 -0.08110499 -0.033767756 -0.059087776 0.080066636
0.0830304 -0.10566435 -0.09115167 0.12089998 -0.12113825 0.093737505 -0.10343596 -0.061735276
-0.0023996572 0.0679921 -0.06647438 -0.066510394 0.10713582 0.14441435 0.10885798 -0.085764445
-0.13447197 0.107628345 0.098677054 0.045678858 -0.050554886 -0.094913885 -0.09357211 0.021543996

linear2.weight f4 [64, 128]
00000000: 969d 09be ba65 37be 234e 963d 32cc 4d3c
00000010: feb2 35be df45 063c e9e1 05bd b8ec b33d
00000020: be40 a33d 5e3a 823d fcaf 1ebf 7971 0cbd
00000030: 31f8 6c3e db8f ef3d a6d5 91bc 6134 50bd
00000040: 7212 e5bd b89b 77bc 28e7 9ebe 4d6d 6d3c
00000050: a2fd 39bd e041 783e 73a5 a03d ea3e 0dbd
00000060: 6578 023e b2fe 6bbe a190 813e a908 c0be
00000070: 9ae2 abbd 1500 14be 8b4d a2be 9f7c af3d
00000080: 7916 253d a5b1 ca3d d4aa 8c3d d8c6 a5bd
00000090: b5db 7abe 9d34 a3be 52e7 b5be 805f f7bd
000000a0: 4ac8 59bd eb81 12be 4d47 783d ab53 083d
000000b0: 0f82 26be a608 463e b055 0ebd da5d f1bd
000000c0: b755 d2bd 011e 673f 1f95 38be f22f 8cbc
000000d0: e248 05be 3724 98be 0ab9 44be c895 64bd
000000e0: 44f7 8b3d 88b6 6c3d 52f5 acbe 2f37 993e
000000f0: 4d28 8a3e a7c7 28bc 54fa fabb a309 1ebe
00000100: edeb 61bd 9b25 983c 4975 783e 1eb9 1f3e
00000110: 6403 393e bd75 dd3c 703a d43e cdeb febd
00000120: c535 c2bd 7c83 0cbe 5f34 10bd 0d47 6cbd
00000130: 6817 97bd fbda e3bd f8ea b23e f1c4 44bd
00000140: cd2e 973e 1b35 653d 57bb fc3c e91e 18bd
00000150: b889 4c3c c482 b5bd f5d0 473e d9d7 d0bd
00000160: 2d50 ea3c b053 f4bc b8a6 803e 2c1e 6e3e
00000170: 668d 05bd b4ce 8f3d 5bc8 01bc f381 bdbc
00000180: 8ed4 7a3e d74f 35be 5a5a 463e 887c 363e
00000190: 173f 2a3e e5db a63d 2bc6 c6bd c860 87bc
000001a0: c935 d63e 92ce 9c3e ea8f c53d 62e8 b8bc
000001b0: e829 1f3e d18d 9dbe bb97 73bd 67a1 a33e
000001c0: 6731 b33e dc36 5fbd 4215 973e 6866 ee3e
000001d0: a089 9abe 5f73 8f3e 028b debd 6518 1b3d
000001e0: 580d 2dbd ba72 09be 5b88 23be 3700 0d3e
000001f0: e8c2 74be f43a 2bbe 1388 853d 7229 86bd
00000200: ab2d 193e eca2 523e 6fc5 1cbd 590c 003d
00000210: 1560 e53d b817 0b3c d11d 813c 7d82 d8bd
00000220: 7757 3cbc 6d24 f0bc bcda 0a3f dc2f 9fbd
00000230: 47ee debd 6591 49bb 0505 9dbc 3a37 ae3b
00000240: d7c8 153e 6ef5 593d 8847 893d 999c ebbd
00000250: 4da4 b23d c53a 8fbe 35d0 a83d 5441 0e3e
00000260: 3d22 e2bc c7ea e63d 1c3a 42be f572 883e
00000270: 4826 e13d f7fd b93c 27d5 a53d 5296 143d
00000280: 9569 ad3c 38a3 a4bd 5bf4 54bc 26cc 183e
00000290: 17ed 713e bf4d 243e 1b3a a63e 7964 113e
000002a0: a2c0 823d 6002 ee3d f0c9 9dbc b71f fc3c
000002b0: 2ef2 063e f830 96be 6939 97ba ebd9 04bd
000002c0: 5ae7 343e 0fe1 03bf 29cd 363d c341 8c3c
000002d0: c740 863d 85b2 663e d4ac bb3d 562b 10bd
000002e0: 2ec8 58bd ada0 313d e78e 243e b03a 4ebe
000002f0: 6b75 9ebe 4ee7 bdbd 7338 b4bc db91 e63d
00000300: 15c1 edbc 1fcb 96bd 4135 b83c 3464 363d
00000310: 670c ddbd 4ad6 a1bd 88fd 06be b31b 003e
00000320: 501d 3d3d eab7 d03d 7769 693d 8aaf c03c
00000330: 2252 82bc c108 573d 5968 b6be 84de 833d
00000340: 1d68 80be fde9 793d 3ec2 133d 82c9 bb3c
00000350: 1cec 05bd 93d2 3dbd f4f8 9cbc 2d7f 4e3e
00000360: 7422 77bd 81df 693c d21a 81be 43dc edbd
00000370: 1bd7 413d 7cdf 74bd da5b e33d 2bd8 0f3d
00000380: 86aa 9bbd 9cb7 7d3e 8c04 84bd 5e88 21be
00000390: 508c 73bd 9da0 bbbd 3bad a53d 83b7 bb3d
000003a0: 72cc 31be d3b1 a1be aeb7 20bd bccd bd3d
000003b0: 573f 5cbd e1e7 063e cc5d e93d a259 35be
000003c0: d042 8abe 1a77 593e 3c7f 27be 5cd6 00bd
000003d0: 66fa 903e 0ec6 19be 68bd 5b3e 51fa 863d
000003e0: 8c7e b7bd dfcc 053e 044e 673b 904f 4bbc
000003f0: 508a d03d 1ca6 573d 69e8 ea3c c8be a53d
-0.1343902 -0.179099 0.07339122 0.012560891 -0.17744061 0.0081953695 -0.032686148 0.08785385
0.07971333 0.06358789 -0.6198728 -0.034287903 0.23141553 0.1169736 -0.01780207 -0.050831202
-0.11185159 -0.01511281 -0.31035733 0.014491391 -0.0454079 0.2424388 0.07844057 -0.034483828
0.1274124 -0.23046377 0.25305656 -0.37506607 -0.0839283 -0.14453156 -0.31699786 0.085686915
0.040304635 0.09897164 0.068685204 -0.08094567 -0.24497874 -0.31876078 -0.35528046 -0.12078762
-0.053169526 -0.14307372 0.060614873 0.033282917 -0.16260551 0.19339237 -0.034749687 -0.11785479
-0.10270255 0.9028016 -0.18025635 -0.017112706 -0.13016084 -0.2971513 -0.19211212 -0.055806905
0.068342716 0.057791263 -0.33780915 0.29924914 0.26983872 -0.010301507 -0.007659236 -0.15433364
-0.055156637 0.01857262 0.2426349 0.1559796 0.180677 0.027033681 0.41450834 -0.12447319
-0.09482912 -0.13722032 -0.035206195 -0.057684947 -0.07377511 -0.111257516 0.34944892 -0.04803938
0.29527894 0.05595885 0.03085105 -0.037138853 0.012484007 -0.08862832 0.19513305 -0.1019742
0.028602684 -0.029825062 0.25127196 0.23253697 -0.03260555 0.07021847 -0.007921304 -0.023133254
0.24495146 -0.17706238 0.19370404 0.17820942 0.1662563 0.0814741 -0.09705766 -0.016525641
0.4183791 0.3062635 0.0964659 -0.022571746 0.1554333 -0.3077226 -0.059470873 0.31959078
0.34998628 -0.054495677 0.29508406 0.46562505 -0.30183125 0.2801771 -0.108663574 0.03786506
-0.042249054 -0.13422671 -0.15969984 0.13769613 -0.23902476 -0.16721708 0.06520095 -0.06550874
0.14958827 0.20569962 -0.038274225 0.031261776 0.11199967 0.008489542 0.015761288 -0.10571764
-0.011495463 -0.029314244 0.5424001 -0.077728 -0.108852915 -0.0030756828 -0.019167433 0.005316642
0.14627396 0.053212576 0.06703097 -0.11504478 0.08722744 -0.27974525 0.08242837 0.13892108
-0.027604217 0.11275249 -0.1896748 0.26650205 0.1099363 0.022704108 0.08097296 0.03627617
0.02116851 -0.08038944 -0.012997712 0.14921626 0.23625599 0.16045283 0.32466206 0.14198484
0.06384398 0.11621547 -0.01926133 0.030776842 0.13178322 -0.29334235 -0.0011537495 -0.032434385
0.17666379 -0.5151529 0.04462925 0.017121201 0.06555324 0.22529037 0.09163824 -0.03519758
-0.05292528 0.043366123 0.16070138 -0.20139575 -0.30948958 -0.092726335 -0.021999573 0.112582885
-0.029022733 -0.07362961 0.022486331 0.044529155 -0.10793381 -0.079022005 -0.13182652 0.12510566
0.046170533 0.10191329 0.056985345 0.023521204 -0.015908305 0.052498583 -0.35626486 0.06438926
-0.25079432 0.061014164 0.036073916 0.022923235 -0.032695875 -0.046343397 -0.019161679 0.20165701
-0.06033559 0.014274479 -0.25215775 -0.11614277 0.04732428 -0.059783444 0.11101504 0.035118263
-0.07600884 0.24777073 -0.0644618 -0.15774676 -0.059459984 -0.09161494 0.08089682 0.091658615
-0.17363146 -0.31580982 -0.03923767 0.09267756 -0.053771343 0.13174392 0.113948435 -0.17709973
-0.270041 0.2123684 -0.1635713 -0.03145443 0.2831604 -0.15016958 0.21458972 0.06590713
-0.08959684 0.13066433 0.0035294304 -0.012409106 0.10182631 0.05264865 0.028675275 0.08093029

linear2.bias f4 [64]
00000000: ee0c 053d 36af 713c 524f 70bc 9329 603d
00000010: 42ef 11bd acb0 cebc 9ed9 b03d f60c 7b3d
00000020: 7750 a7bd 5c0f 4fbd 883b aabd c294 583d
00000030: e86c 00bc 8184 8b3c ab32 423c c3d6 83bc
00000040: 8f9a b03d ed29 fdbd 646d 8ebd 400f 6c3d
00000050: 9b57 7dbc 1873 e9bc 73fe b5bd fbd1 69bc
00000060: 7c71 933c 6491 efbd a2b9 cbbd 984b 97bd
00000070: 768c 013d 7cf8 c53c 8ed6 aabc 3398 d13d
00000080: 1e27 6d3d bec1 633d 06e5 2c3d cd7a 3c3c
00000090: 02a4 cbbc 1c39 843d 2191 7f3c b66c 8cbd
000000a0: 9066 9fbd b0f4 52bc f5ba eabd 238f b43d
000000b0: e30b c83d 4d13 8fbd d803 fe3c 559c 353d
000000c0: 2ae8 01bd e89d 1a3d f2d1 883d b8da 5a3d
000000d0: a464 ec3c ee73 9fbd d912 703d 254a 90bd
000000e0: aeb5 993c 5342 2b3d d6ab 10bc 55d9 ab3d
000000f0: 9531 c03b 008d 8fbd 88b8 18bd 9938 5bbd
0.032483034 0.014751246 -0.014667349 0.05472715 -0.035628565 -0.025230728 0.08635257 0.061291657
-0.08169644 -0.050551757 -0.08312136 0.05287624 -0.007838465 0.017030956 0.0118529005 -0.016093617
0.0862323 -0.12361512 -0.06954458 0.05763173 -0.015462781 -0.028497264 -0.08886423 -0.014271255
0.01799845 -0.11697653 -0.09947516 -0.07387465 0.031628095 0.024166338 -0.02085426 0.10234108
0.057898633 0.05560469 0.0422106 0.011503887 -0.024858478 0.06456205 0.015598566 -0.068566725
-0.07783234 -0.012875721 -0.114614405 0.08816364 0.09767892 -0.06986103 0.031007692 0.044338543
-0.03171555 0.037748247 0.06680669 0.053431243 0.028856583 -0.07785784 0.058611725 -0.07045392
0.01876339 0.0418113 -0.008830031 0.08391062 0.0058652856 -0.070093155 -0.037285358 -0.053520773

out1.weight f4 [31, 64]
00000000: adf2 6fbc 33c8 903d 25a3 033d 6533 ecbd
00000010: e663 6a3d 44b0 64bd 18ff 22be ccc1 e43c
00000020: 83bb 52bd 9910 14be af3c 00be 866f 4bbd
00000030: 3ca8 0c3e 53cc 17be b9bd 54bb 589e 43bc
00000040: e6b2 153e eb9b 10be 483b 5abd d6dd f5bc
00000050: 4998 cc3c 3f5c 963d 3bf2 ee3c 994e fd3c
00000060: 8b69 1dbd 84f3 ee3d 4d3e 643d ec23 7bbc
00000070: d41f a8bd 7497 0e3e e1f3 24bc 1fe8 68bd
00000080: f104 f43d 2647 02be f6f9 4abd a779 ab3c
00000090: 1fd7 b33c ed3a f2bd cb36 b93d 0420 a4bd
000000a0: 9ad9 953a 7b1c af3d 4f21 cbbc 203f 993d
000000b0: d871 69bd 9a19 f8bd ba61 203e dc42 b93d
000000c0: ca84 0abd c820 b5bd d9f6 bdbd 1504 ee3d
000000d0: 610e ac3d 587f 443d 8b59 cabd e23b 943d
000000e0: 4343 16bd e989 3cbd 0ec6 95bd cc92 3dbd
000000f0: 8559 de3b 30dc 8b3b 5aeb 083e 91dc 443d
00000100: 2287 973d 3d33 b53d deb0 bd3d 0c62 863e
00000110: 4680 1cbe c13c bf3e e341 42be 4702 363e
00000120: 3de6 5f3d f80f c1be 53e4 903e b013 08be
00000130: eeb7 b0be 17ed d9bc 3d17 32be 3dea 25be
00000140: a2c3 693e 77ce 8dbe de28 30be 6916 2c3e
00000150: 784a a3be 4ff0 ae3e a78a 5cbe 4cd5 43be
00000160: e543 a8be 5e8c 1e3e e933 313e 3a61 95be
00000170: 54d4 c93d f940 3f3e d8ee 64be 666f 6f3e
00000180: f112 9a3e a40c 78be 1451 1dbe c68f 0d3d
00000190: ec67 bcbe 8976 7bbe 05cd 35bd 9178 4d3e
000001a0: edda 62be 946d 153e 40cb 703e 9872 cc3d
000001b0: 49c4 55be 620a 72be 7b6b d1bd 2363 0dbe
000001c0: 9027 32be 32b5 3d3e 68d6 99be af71 9a3d
000001d0: b3a7 623e 3bac 483e 5daf 403e d130 cdbd
000001e0: 3dde 8e3e e936 7f3e a985 55be 864a babe
000001f0: dca7 92bd 15e2 24be 0976 71be f38b 14be
00000200: e1b1 abbe 002b 4f3e 065e 98bd b79a a2bb
00000210: 740e 0cbe 1484 47be 4148 643e 5516 033e
00000220: ee41 223e b59c 2dbe 4bd3 473e 239f 283e
00000230: b441 63be 961b 8a3e b84a c43d 6eac 613e
00000240: 1203 493f d6aa 13bf b0d6 88bb c55f b4be
00000250: 8c56 81bd 050b c73e a28a 2cbc bd26 95be
00000260: f6a1 543b bc8b f7bd 65cf 573d 2738 8abe
00000270: 89dc 963e 414d 72bd 4c7e 25be c52f 9cbd
00000280: 0523 91be 46a4 82bd 4f06 56be 6335 5dbe
00000290: 663c 4d3e c6c4 933d 6868 40bb 2565 233f
000002a0: 8709 eabd 3314 9c3e eb48 223d fd75 a63e
000002b0: fe04 393d 725f 72be b34d d63d 9a7c 623e
000002c0: 1439 aa3d c8b4 113e bca1 5c3e 69c1 93be
000002d0: c5d7 92be 07e7 6c3d 3400 d2bd 4926 95bd
000002e0: 25ad 7c3e 0970 c13b 73f8 773d 731f 32be
000002f0: ea6b 553e 7a0a 50bf 8fcf 99bd 491d 6bbe
00000300: 11e2 babd 7c68 1a3e b312 e53b aaa3 88bc
00000310: 9d82 42bd a00c 00bd 6ea0 43bd ba59 193d
00000320: dadc a0bb e11a bdbd f480 bc3d 1a7f f83d
00000330: 3474 d4bd 336f be3d 5bf1 4a3c f80a 423c
00000340: 25a5 8b3d fc60 ca3c 2fe3 bfbd 2ae1 6dbd
00000350: ebd1 cabd 3fab 103d f830 de3d 4969 11be
00000360: 4d21 343d 11e7 933d f8d8 f53c f0bb 2abd
00000370: 4493 b1bd b0a9 063d 429c 41bd 5f25 163c
00000380: 96b5 76bd 9a87 97bd 6bf7 f2bc 6eea b93d
00000390: e36c 4e3d 9935 d93d 75d7 e93c 97e0 333e
000003a0: 40ca e73d 74aa 093c 390f d43d b14e b0bd
000003b0: ac2d c3bd 9eae eebc 5cd8 983d c1f1 82bd
000003c0: a0ac 6cbd 469f 9bbc 57b6 babc 911a 16bc
000003d0: d2f7 953b 89c1 b4bc d098 98bd 7b41 a53c
000003e0: ba95 77bd a4cf d9bd 3bcd bebd d8e5 68bc
000003f0: 5400 23bc a1b2 94bd b8af bebd d16f edbd
-0.014645261 0.07069435 0.03213801 -0.1153324 0.057224177 -0.055832162 -0.15917623 0.02792444
-0.051448356 -0.14459457 -0.12523149 -0.049666904 0.13736051 -0.14824037 -0.0032461716 -0.011939608
0.14619026 -0.14121978 -0.05327919 -0.030013006 0.024974959 0.07341813 0.029168239 0.030921267
-0.03843073 0.11667541 0.055723477 -0.015328389 -0.08209196 0.13924962 -0.010067911 -0.056861993
0.11915005 -0.12722453 -0.049554788 0.020932032 0.021953164 -0.118276455 0.09043654 -0.08013919
0.0011432648 0.08550354 -0.024796156 0.07482743 -0.056993335 -0.12114258 0.1566228 0.090459555
-0.033818044 -0.08844143 -0.09275598 0.11621872 0.0840118 0.047973007 -0.0988036 0.07237984
-0.03668524 -0.04602996 -0.073131666 -0.046282575 0.006785574 0.0042681918 0.1337103 0.04806191
0.073988214 0.088476636 0.0926225 0.2624668 -0.15283307 0.3735104 -0.18970446 0.17774306
0.05466293 -0.37707496 0.28299198 -0.1328876 -0.34515327 -0.026602311 -0.17391677 -0.16202636
0.22828534 -0.27696583 -0.1720309 0.16805424 -0.31892753 0.34167716 -0.21537267 -0.19124335
-0.328643 0.15483233 0.17304958 -0.2917574 0.098549515 0.18677129 -0.22356737 0.23382339
0.30092576 -0.24223572 -0.1536296 0.03456094 -0.36798036 -0.24556936 -0.044384975 0.20065524
-0.22153826 0.14592582 0.23515034 0.099827945 -0.20875658 -0.23636773 -0.102255784 -0.13807349
-0.17397904 0.18526152 -0.3004639 0.07541215 0.22134285 0.1959695 0.18816896 -0.100190766
0.2790393 0.2492329 -0.20851769 -0.36384982 -0.07160923 -0.16101868 -0.23580183 -0.14506511
-0.33534148 0.20231247 -0.074398085 -0.004962291 -0.13677388 -0.19483978 0.22293188 0.12801488
0.15845463 -0.1695431 0.19514196 0.16466956 -0.22193033 0.2697417 0.09584564 0.22038433
0.7852031 -0.5768255 -0.0041759834 -0.35229316 -0.06315336 0.38875595 -0.0105310995 -0.29131117
0.003244517 -0.12087199 0.05268802 -0.26995966 0.2946513 -0.059155706 -0.1616146 -0.07626299
-0.2834703 -0.06378989 -0.20900844 -0.21602397 0.20042571 0.07215266 -0.0029359106 0.6382621
-0.114275984 0.3048416 0.03962032 0.32511893 0.045170777 -0.23669222 0.10464039 0.22117844
0.08311668 0.14229119 0.21546072 -0.28858498 -0.28680244 0.057837512 -0.10253945 -0.07282693
0.24675424 0.005903248 0.060539674 -0.1739481 0.20841947 -0.81265986 -0.07510292 -0.2296039
-0.0912515 0.1507892 0.0069907545 -0.016679604 -0.047487844 -0.03126204 -0.04776042 0.037439086
-0.00490914 -0.09233642 0.09204283 0.12133618 -0.103737265 0.09298553 0.012386645 0.0118434355
0.06818608 0.024704449 -0.09369504 -0.05807606 -0.0990332 0.035319563 0.10849184 -0.1420032
0.04397707 0.07221807 0.030010685 -0.041683137 -0.08670667 0.03287667 -0.04726816 0.009164183
-0.060231768 -0.07398911 -0.029658994 0.09077917 0.05039681 0.10605926 0.02854512 0.17566143
0.11317873 0.008402456 0.10354466 -0.08608759 -0.095301956 -0.029135998 0.07463142 -0.06393767
-0.057781816 -0.018996846 -0.022792025 -0.009161607 0.0045766616 -0.022064941 -0.07451022 0.020172825
-0.060445525 -0.106353074 -0.09316488 -0.014214955 -0.009948809 -0.07260633 -0.093108594 -0.11593593

out1.bias f4 [31]
00000000: 01b9 8d3d 3102 1d3e 0ebe e73d 97de 5ebb
00000010: 5827 ecbc 3ea1 883c 05f1 8dbc c3ba 423c
00000020: ed99 b1bc 11cf a03d cdf5 963d adcb 603e
00000030: b40a 023d 9bb7 8d3d 8a79 68bb 304a a53d
00000040: d8f4 a6bd 1b24 aabd 124a 33be 901f b53d
00000050: 3c0c 2fbe e12a c1bd c224 1abe 3b03 c5bd
00000060: a638 50be 562d 10bd 642f ccbd 8a2e b3bd
00000070: 2d7a 86bd b9f6 8ebd a5df 8bbe
0.06920052 0.15332867 0.11315547 -0.0034007186 -0.028827354 0.016678449 -0.017326841 0.011885348
-0.021679843 0.07851995 0.073711015 0.21952696 0.03174849 0.069197856 -0.0035472834 0.08070791
-0.08152169 -0.08307668 -0.17508724 0.08843911 -0.17094511 -0.094320066 -0.15053084 -0.09619757
-0.2033411 -0.035199486 -0.099699765 -0.08749111 -0.06566272 -0.06980652 -0.27319065

out3.weight f4 [1, 64]
00000000: 4ba5 6dbf e71d 643f 1fd0 7f3f 533a 6e3f
00000010: 6c02 69bf 6a2f 6fbf f632 5f3f 1c6b 5dbf
00000020: 052d 623f 880a c13f 28aa 603f 4679 813f
00000030: 3b64 62bf e199 5e3f fa3e 75bf a8f8 673f
00000040: 7778 5ebf e828 723f cc92 83bf f2df 62bf
00000050: 6256 6cbf a33c 73bf 665e 683f 6687 64bf
00000060: 6436 6c3f c816 64bf e68f 7ebf fbfe 64bf
00000070: 7325 983f 800c 68bf b7a7 87bf fec0 6fbf
00000080: f8bf 63bf cf37 753f 2b1c 6dbf aef3 57bf
00000090: 2153 683f de4e 643f fa85 833f 8ede c9bf
000000a0: 008b 6cbf 5865 5c3f ad42 92bf 0aed 623f
000000b0: 5f81 883f 5618 67bf 2130 70bf b9ee 783f
000000c0: 1fcb 653f 4d07 61bf 2cb0 813f 21cd 6fbf
000000d0: c4e2 71bf 30a9 b5bf 800f 973f dbd2 673f
000000e0: f1db 813f d331 823f ad8b 7a3f 385f 62bf
000000f0: 2182 693f bb43 3a3f f0de 8cbf 678b 743f
-0.9283034 0.8910813 0.9992694 0.93057746 -0.9101932 -0.93431723 0.87187135 -0.8649156
0.88349944 1.5081339 0.8775964 1.0115135 -0.8843419 0.8695355 -0.9579922 0.90613794
-0.86902565 0.9459367 -1.0279174 -0.88622963 -0.9231931 -0.950144 0.9076904 -0.892691
0.92270494 -0.8909726 -0.9943832 -0.8945157 1.1886429 -0.90644073 -1.0598058 -0.9365386
-0.88964796 0.9578828 -0.92621106 -0.843562 0.90751845 0.8918284 1.0275261 -1.5771043
-0.923996 0.8609214 -1.1426598 0.8864294 1.0664481 -0.9027151 -0.9382344 0.9723926
0.89763063 -0.87901765 1.0131888 -0.93672377 -0.9448664 -1.4192257 1.1801605 0.90556115
1.0145246 1.0171455 0.9786938 -0.8842654 0.91214186 0.727596 -1.1005535 0.9552521
